2026-03-26 23:24:00 [INFO] Logging configured. Output will be saved to: ./output/train_10_causal\20260326-232400-max_former-32\train_20260326-232400-max_former-32.log
2026-03-26 23:24:00 [INFO] Generating Model Summary...
2026-03-26 23:24:01 [INFO] 
===============================================================================================
Layer (type:depth-idx)                        Output Shape              Param #
===============================================================================================
Max_Former                                    [4, 1, 10]                --
©Ŕ©¤Embed_Orig: 1-1                             [4, 1, 96, 32, 32]        --
©¦    ©¸©¤Conv2d: 2-1                            [4, 48, 32, 32]           1,296
©¦    ©¸©¤BatchNorm2d: 2-2                       [4, 48, 32, 32]           96
©¦    ©¸©¤Embed: 2-3                             [4, 96, 32, 32]           --
©¦    ©¦    ©¸©¤MultiStepLIFNode: 3-1             [4, 1, 48, 32, 32]        --
©¦    ©¦    ©¸©¤Conv2d: 3-2                       [4, 96, 32, 32]           41,472
©¦    ©¦    ©¸©¤BatchNorm2d: 3-3                  [4, 96, 32, 32]           192
©¦    ©¸©¤Embed: 2-4                             [4, 96, 32, 32]           --
©¦    ©¦    ©¸©¤MultiStepLIFNode: 3-4             [4, 1, 48, 32, 32]        --
©¦    ©¦    ©¸©¤Conv2d: 3-5                       [4, 96, 32, 32]           4,608
©¦    ©¦    ©¸©¤BatchNorm2d: 3-6                  [4, 96, 32, 32]           192
©Ŕ©¤ModuleList: 1-2                             --                        --
©¦    ©¸©¤Block_identity: 2-5                    [4, 1, 96, 32, 32]        --
©¦    ©¦    ©¸©¤Mixer_identity: 3-7               [4, 1, 96, 32, 32]        --
©¦    ©¦    ©¸©¤S_MLP: 3-8                        [4, 1, 96, 32, 32]        79,392
©Ŕ©¤Embed_Max: 1-3                              [4, 1, 192, 16, 16]       --
©¦    ©¸©¤Max_Embed: 2-6                         [4, 192, 16, 16]          --
©¦    ©¦    ©¸©¤MultiStepLIFNode: 3-9             [4, 1, 96, 32, 32]        --
©¦    ©¦    ©¸©¤Conv2d: 3-10                      [4, 192, 32, 32]          165,888
©¦    ©¦    ©¸©¤BatchNorm2d: 3-11                 [4, 192, 32, 32]          384
©¦    ©¦    ©¸©¤MaxPool2d: 3-12                   [4, 192, 16, 16]          --
©¦    ©¸©¤Embed: 2-7                             [4, 192, 16, 16]          --
©¦    ©¦    ©¸©¤MultiStepLIFNode: 3-13            [4, 1, 192, 16, 16]       --
©¦    ©¦    ©¸©¤Conv2d: 3-14                      [4, 192, 16, 16]          331,776
©¦    ©¦    ©¸©¤BatchNorm2d: 3-15                 [4, 192, 16, 16]          384
©¦    ©¸©¤Max_Embed: 2-8                         [4, 192, 16, 16]          --
©¦    ©¦    ©¸©¤Conv2d: 3-16                      [4, 192, 32, 32]          18,432
©¦    ©¦    ©¸©¤BatchNorm2d: 3-17                 [4, 192, 32, 32]          384
©¦    ©¦    ©¸©¤MaxPool2d: 3-18                   [4, 192, 16, 16]          --
©Ŕ©¤ModuleList: 1-4                             --                        --
©¦    ©¸©¤Block_DWC3: 2-9                        [4, 1, 192, 16, 16]       --
©¦    ©¦    ©¸©¤Mixer_DWC3: 3-19                  [4, 1, 192, 16, 16]       2,304
©¦    ©¦    ©¸©¤S_MLP: 3-20                       [4, 1, 192, 16, 16]       306,240
©Ŕ©¤DynamicCausalMask: 1-5                      [4, 1, 192, 16, 16]       --
©¦    ©¸©¤Sequential: 2-10                       [1, 192, 16, 16]          --
©¦    ©¦    ©¸©¤Conv2d: 3-21                      [1, 48, 16, 16]           9,216
©¦    ©¦    ©¸©¤BatchNorm2d: 3-22                 [1, 48, 16, 16]           96
©¦    ©¦    ©¸©¤ReLU: 3-23                        [1, 48, 16, 16]           --
©¦    ©¦    ©¸©¤Conv2d: 3-24                      [1, 192, 16, 16]          9,408
©Ŕ©¤Embed_Max: 1-6                              [4, 1, 384, 8, 8]         --
©¦    ©¸©¤Max_Embed: 2-11                        [4, 384, 8, 8]            --
©¦    ©¦    ©¸©¤MultiStepLIFNode: 3-25            [4, 1, 192, 16, 16]       --
©¦    ©¦    ©¸©¤Conv2d: 3-26                      [4, 384, 16, 16]          663,552
©¦    ©¦    ©¸©¤BatchNorm2d: 3-27                 [4, 384, 16, 16]          768
©¦    ©¦    ©¸©¤MaxPool2d: 3-28                   [4, 384, 8, 8]            --
©¦    ©¸©¤Embed: 2-12                            [4, 384, 8, 8]            --
©¦    ©¦    ©¸©¤MultiStepLIFNode: 3-29            [4, 1, 384, 8, 8]         --
©¦    ©¦    ©¸©¤Conv2d: 3-30                      [4, 384, 8, 8]            1,327,104
©¦    ©¦    ©¸©¤BatchNorm2d: 3-31                 [4, 384, 8, 8]            768
©¦    ©¸©¤Max_Embed: 2-13                        [4, 384, 8, 8]            --
©¦    ©¦    ©¸©¤Conv2d: 3-32                      [4, 384, 16, 16]          73,728
©¦    ©¦    ©¸©¤BatchNorm2d: 3-33                 [4, 384, 16, 16]          768
©¦    ©¦    ©¸©¤MaxPool2d: 3-34                   [4, 384, 8, 8]            --
©Ŕ©¤ModuleList: 1-9                             --                        (recursive)
©¦    ©¸©¤Block_SSA: 2-14                        [4, 1, 384, 8, 8]         --
©¦    ©¦    ©¸©¤SSA: 3-35                         [4, 1, 384, 8, 8]         593,280
©¦    ©¦    ©¸©¤S_MLP: 3-36                       [4, 1, 384, 8, 8]         1,202,304
©¦    ©¸©¤Block_SSA: 2-15                        [4, 1, 384, 8, 8]         --
©¦    ©¦    ©¸©¤SSA: 3-37                         [4, 1, 384, 8, 8]         593,280
©¦    ©¦    ©¸©¤S_MLP: 3-38                       [4, 1, 384, 8, 8]         1,202,304
©Ŕ©¤Embed_Max: 1-8                              [4, 1, 384, 8, 8]         (recursive)
©¦    ©¸©¤Max_Embed: 2-16                        [4, 384, 8, 8]            (recursive)
©¦    ©¦    ©¸©¤MultiStepLIFNode: 3-39            [4, 1, 192, 16, 16]       --
©¦    ©¦    ©¸©¤Conv2d: 3-40                      [4, 384, 16, 16]          (recursive)
©¦    ©¦    ©¸©¤BatchNorm2d: 3-41                 [4, 384, 16, 16]          (recursive)
©¦    ©¦    ©¸©¤MaxPool2d: 3-42                   [4, 384, 8, 8]            --
©¦    ©¸©¤Embed: 2-17                            [4, 384, 8, 8]            (recursive)
©¦    ©¦    ©¸©¤MultiStepLIFNode: 3-43            [4, 1, 384, 8, 8]         --
©¦    ©¦    ©¸©¤Conv2d: 3-44                      [4, 384, 8, 8]            (recursive)
©¦    ©¦    ©¸©¤BatchNorm2d: 3-45                 [4, 384, 8, 8]            (recursive)
©¦    ©¸©¤Max_Embed: 2-18                        [4, 384, 8, 8]            (recursive)
©¦    ©¦    ©¸©¤Conv2d: 3-46                      [4, 384, 16, 16]          (recursive)
©¦    ©¦    ©¸©¤BatchNorm2d: 3-47                 [4, 384, 16, 16]          (recursive)
©¦    ©¦    ©¸©¤MaxPool2d: 3-48                   [4, 384, 8, 8]            --
©Ŕ©¤ModuleList: 1-9                             --                        (recursive)
©¦    ©¸©¤Block_SSA: 2-19                        [4, 1, 384, 8, 8]         (recursive)
©¦    ©¦    ©¸©¤SSA: 3-49                         [4, 1, 384, 8, 8]         (recursive)
©¦    ©¦    ©¸©¤S_MLP: 3-50                       [4, 1, 384, 8, 8]         (recursive)
©¦    ©¸©¤Block_SSA: 2-20                        [4, 1, 384, 8, 8]         (recursive)
©¦    ©¦    ©¸©¤SSA: 3-51                         [4, 1, 384, 8, 8]         (recursive)
©¦    ©¦    ©¸©¤S_MLP: 3-52                       [4, 1, 384, 8, 8]         (recursive)
©Ŕ©¤MultiStepLIFNode: 1-10                      [4, 1, 384]               --
©¦    ©¸©¤Sigmoid: 2-21                          [1, 384]                  --
©¦    ©¸©¤Sigmoid: 2-22                          [1, 384]                  --
©¦    ©¸©¤Sigmoid: 2-23                          [1, 384]                  --
©¦    ©¸©¤Sigmoid: 2-24                          [1, 384]                  --
©Ŕ©¤Linear: 1-11                                [4, 1, 10]                3,850
©Ŕ©¤MultiStepLIFNode: 1-12                      [4, 1, 384]               --
©¦    ©¸©¤Sigmoid: 2-25                          [1, 384]                  --
©¦    ©¸©¤Sigmoid: 2-26                          [1, 384]                  --
©¦    ©¸©¤Sigmoid: 2-27                          [1, 384]                  --
©¦    ©¸©¤Sigmoid: 2-28                          [1, 384]                  --
©Ŕ©¤Linear: 1-13                                [4, 1, 10]                (recursive)
===============================================================================================
Total params: 6,633,466
Trainable params: 6,633,466
Non-trainable params: 0
Total mult-adds (G): 5.94
===============================================================================================
Input size (MB): 0.01
…
