2026-03-17 09:19:16 [INFO] Logging configured. Output will be saved to: ./output/train_100_causal\20260317-091916-max_former-32\train_20260317-091916-max_former-32.log
2026-03-17 09:19:16 [INFO] Generating Model Summary...
2026-03-17 09:19:17 [INFO] 
===============================================================================================
Layer (type:depth-idx)                        Output Shape              Param #
===============================================================================================
Max_Former                                    [1, 100]                  --
©Ŕ©¤Embed_Orig: 1-1                             [4, 1, 96, 32, 32]        --
©¦    ©¸©¤Conv2d: 2-1                            [4, 48, 32, 32]           1,296
©¦    ©¸©¤BatchNorm2d: 2-2                       [4, 48, 32, 32]           96
©¦    ©¸©¤Embed: 2-3                             [4, 96, 32, 32]           --
©¦    ©¦    ©¸©¤MultiStepLIFNode: 3-1             [4, 1, 48, 32, 32]        --
©¦    ©¦    ©¸©¤Conv2d: 3-2                       [4, 96, 32, 32]           41,472
©¦    ©¦    ©¸©¤BatchNorm2d: 3-3                  [4, 96, 32, 32]           192
©¦    ©¸©¤Embed: 2-4                             [4, 96, 32, 32]           --
©¦    ©¦    ©¸©¤MultiStepLIFNode: 3-4             [4, 1, 48, 32, 32]        --
©¦    ©¦    ©¸©¤Conv2d: 3-5                       [4, 96, 32, 32]           4,608
©¦    ©¦    ©¸©¤BatchNorm2d: 3-6                  [4, 96, 32, 32]           192
©Ŕ©¤ModuleList: 1-2                             --                        --
©¦    ©¸©¤Block_identity: 2-5                    [4, 1, 96, 32, 32]        --
©¦    ©¦    ©¸©¤Mixer_identity: 3-7               [4, 1, 96, 32, 32]        --
©¦    ©¦    ©¸©¤S_MLP: 3-8                        [4, 1, 96, 32, 32]        75,168
©Ŕ©¤Embed_Max: 1-3                              [4, 1, 192, 16, 16]       --
©¦    ©¸©¤Max_Embed: 2-6                         [4, 192, 16, 16]          --
©¦    ©¦    ©¸©¤MultiStepLIFNode: 3-9             [4, 1, 96, 32, 32]        --
©¦    ©¦    ©¸©¤Conv2d: 3-10                      [4, 192, 32, 32]          165,888
©¦    ©¦    ©¸©¤BatchNorm2d: 3-11                 [4, 192, 32, 32]          384
©¦    ©¦    ©¸©¤MaxPool2d: 3-12                   [4, 192, 16, 16]          --
©¦    ©¸©¤Embed: 2-7                             [4, 192, 16, 16]          --
©¦    ©¦    ©¸©¤MultiStepLIFNode: 3-13            [4, 1, 192, 16, 16]       --
©¦    ©¦    ©¸©¤Conv2d: 3-14                      [4, 192, 16, 16]          331,776
©¦    ©¦    ©¸©¤BatchNorm2d: 3-15                 [4, 192, 16, 16]          384
©¦    ©¸©¤Max_Embed: 2-8                         [4, 192, 16, 16]          --
©¦    ©¦    ©¸©¤Conv2d: 3-16                      [4, 192, 32, 32]          18,432
©¦    ©¦    ©¸©¤BatchNorm2d: 3-17                 [4, 192, 32, 32]          384
©¦    ©¦    ©¸©¤MaxPool2d: 3-18                   [4, 192, 16, 16]          --
©Ŕ©¤ModuleList: 1-4                             --                        --
©¦    ©¸©¤Block_DWC3: 2-9                        [4, 1, 192, 16, 16]       --
©¦    ©¦    ©¸©¤Mixer_DWC3: 3-19                  [4, 1, 192, 16, 16]       2,304
©¦    ©¦    ©¸©¤S_MLP: 3-20                       [4, 1, 192, 16, 16]       297,792
©Ŕ©¤DynamicCausalMask: 1-5                      [4, 1, 192, 16, 16]       --
©¦    ©¸©¤Sequential: 2-10                       [1, 192, 16, 16]          --
©¦    ©¦    ©¸©¤Conv2d: 3-21                      [1, 48, 16, 16]           9,216
©¦    ©¦    ©¸©¤BatchNorm2d: 3-22                 [1, 48, 16, 16]           96
©¦    ©¦    ©¸©¤ReLU: 3-23                        [1, 48, 16, 16]           --
©¦    ©¦    ©¸©¤Conv2d: 3-24                      [1, 192, 16, 16]          9,408
©Ŕ©¤Embed_Max: 1-6                              [4, 2, 384, 8, 8]         --
©¦    ©¸©¤Max_Embed: 2-11                        [8, 384, 8, 8]            --
©¦    ©¦    ©¸©¤MultiStepLIFNode: 3-25            [4, 2, 192, 16, 16]       --
©¦    ©¦    ©¸©¤Conv2d: 3-26                      [8, 384, 16, 16]          663,552
©¦    ©¦    ©¸©¤BatchNorm2d: 3-27                 [8, 384, 16, 16]          768
©¦    ©¦    ©¸©¤MaxPool2d: 3-28                   [8, 384, 8, 8]            --
©¦    ©¸©¤Embed: 2-12                            [8, 384, 8, 8]            --
©¦    ©¦    ©¸©¤MultiStepLIFNode: 3-29            [4, 2, 384, 8, 8]         --
©¦    ©¦    ©¸©¤Conv2d: 3-30                      [8, 384, 8, 8]            1,327,104
©¦    ©¦    ©¸©¤BatchNorm2d: 3-31                 [8, 384, 8, 8]            768
©¦    ©¸©¤Max_Embed: 2-13                        [8, 384, 8, 8]            --
©¦    ©¦    ©¸©¤Conv2d: 3-32                      [8, 384, 16, 16]          73,728
©¦    ©¦    ©¸©¤BatchNorm2d: 3-33                 [8, 384, 16, 16]          768
©¦    ©¦    ©¸©¤MaxPool2d: 3-34                   [8, 384, 8, 8]            --
©Ŕ©¤ModuleList: 1-7                             --                        --
©¦    ©¸©¤Block_SSA: 2-14                        [4, 2, 384, 8, 8]         --
©¦    ©¦    ©¸©¤SSA: 3-35                         [4, 2, 384, 8, 8]         593,280
©¦    ©¦    ©¸©¤S_MLP: 3-36                       [4, 2, 384, 8, 8]         1,185,408
©¦    ©¸©¤Block_SSA: 2-15                        [4, 2, 384, 8, 8]         --
©¦    ©¦    ©¸©¤SSA: 3-37                         [4, 2, 384, 8, 8]         593,280
©¦    ©¦    ©¸©¤S_MLP: 3-38                       [4, 2, 384, 8, 8]         1,185,408
©Ŕ©¤MultiStepLIFNode: 1-8                       [4, 2, 384]               --
©¦    ©¸©¤Sigmoid: 2-16                          [2, 384]                  --
©¦    ©¸©¤Sigmoid: 2-17                          [2, 384]                  --
©¦    ©¸©¤Sigmoid: 2-18                          [2, 384]                  --
©¦    ©¸©¤Sigmoid: 2-19                          [2, 384]                  --
©Ŕ©¤Linear: 1-9                                 [2, 100]                  38,500
===============================================================================================
Total params: 6,621,652
Trainable params: 6,621,652
Non-trainable params: 0
Total mult-adds (G): 5.91
===============================================================================================
Input size (MB): 0.01
Forward/backward pass size (MB): 179.90
Params size (MB): 26.49
Estimated Total Size (MB): 206.40
…
